trained_models/okay_nabu/stream_state_internal_quantized.tflite (tflite, 76960 bytes, 34 tensors)

model/dense/MatMul i1 [1, 70] scale=0.0053274413 zero_point=0
00000000: 488d a557 4592 4b52 8f4f 969e 864b a153
00000010: 508f 5a4a 5881 5049 9490 494a 8e8c 548d
00000020: 5254 8a54 8448 3f94 9747 4245 4e93 484a
00000030: a349 4c54 999b 5351 4052 4655 9e97 a98e
00000040: 91a2 a39a 908b
0.38357577 -0.61265576 -0.48479715 0.4634874 0.36759344 -0.58601856 0.3995581 0.4368502
-0.6020009 0.42086786 -0.56470877 -0.52208924 -0.6499478 0.3995581 -0.5061069 0.44217762
0.4261953 -0.6020009 0.47946972 0.39423066 0.46881482 -0.676585 0.4261953 0.3889032
-0.57536364 -0.5966734 0.3889032 0.39423066 -0.6073283 -0.61798316 0.44750506 -0.61265576
0.4368502 0.44750506 -0.6286381 0.44750506 -0.6606027 0.38357577 0.3356288 -0.57536364
-0.5593813 0.37824833 0.35161114 0.36759344 0.41554043 -0.5806911 0.38357577 0.39423066
-0.49545205 0.3889032 0.40488553 0.44750506 -0.54872644 -0.5380716 0.44217762 0.43152276
0.34095624 0.4368502 0.3729209 0.45283252 -0.52208924 -0.5593813 -0.4634874 -0.6073283
-0.59134597 -0.50077945 -0.49545205 -0.54339904 -0.5966734 -0.6233106

model/conv2d_21/Conv2D i1 [70, 1, 1, 48]
00000000: dffe f811 1cfe 0dcf dcea 021a f807 fbf1
00000010: 2f26 1144 f014 01f7 2a20 47e9 e4e5 d503
00000020: 79fe 3826 0255 2cde 58e8 7fcb 1a01 e91c
00000030: 3df0 f216 072a fad0 3e27 1be5 53d3 70ac
00000040: 0394 1aba dbe8 2f1e c921 b9fc e655 fee5
00000050: f116 6536 7fe2 4b2f d634 065d 3b36 1c54
00000060: 111a ec36 d62f 25c0 15fb 1802 15ca 07f0
00000070: d3d5 2fab f529 f145 f827 d205 2005 17e2
00000080: f201 fc21 5e19 284e bb08 1820 2e15 287f
00000090: 0101 f710 1ad8 45e3 d8c0 c3f8 de29 1914
000000a0: 2d38 1d15 dd1d 00b7 0f53 30fd b82b c941
000000b0: 5a1f 0d45 ff76 0dfb 7ffe 74bb 4719 d4fb
000000c0: e6f1 fc14 21ef 09d3 eccb 03f6 f12f f331
000000d0: df1a 1a22 e718 0cd7 1929 04ed be0d d9f6
000000e0: 5d13 3624 ee51 1df4 6eed 7fc4 29fd fb0a
000000f0: 3de0 fc22 0a30 23de 11e5 35d5 03c4 54ed
-33 -2 -8 17 28 -2 13 -49
-36 -22 2 26 -8 7 -5 -15
47 38 17 68 -16 20 1 -9
42 32 71 -23 -28 -27 -43 3
121 -2 56 38 2 85 44 -34
88 -24 127 -53 26 1 -23 28
61 -16 -14 22 7 42 -6 -48
62 39 27 -27 83 -45 112 -84
3 -108 26 -70 -37 -24 47 30
-55 33 -71 -4 -26 85 -2 -27
-15 22 101 54 127 -30 75 47
-42 52 6 93 59 54 28 84
17 26 -20 54 -42 47 37 -64
21 -5 24 2 21 -54 7 -16
-45 -43 47 -85 -11 41 -15 69
-8 39 -46 5 32 5 23 -30
-14 1 -4 33 94 25 40 78
-69 8 24 32 46 21 40 127
1 1 -9 16 26 -40 69 -29
-40 -64 -61 -8 -34 41 25 20
45 56 29 21 -35 29 0 -73
15 83 48 -3 -72 43 -55 65
90 31 13 69 -1 118 13 -5
127 -2 116 -69 71 25 -44 -5
-26 -15 -4 20 33 -17 9 -45
-20 -53 3 -10 -15 47 -13 49
-33 26 26 34 -25 24 12 -41
25 41 4 -19 -66 13 -39 -10
93 19 54 36 -18 81 29 -12
110 -19 127 -60 41 -3 -5 10
61 -32 -4 34 10 48 35 -34
17 -27 53 -43 3 -60 84 -19

model/stream_9/conv2d_20/Conv2D i1 [16, 5, 1, 16]
00000000: 1d22 e80c ac6e 1808 e20b e2e7 728e 267f
00000010: 090f 08ea 062a 09cd f309 dbd6 ee05 24ec
00000020: fbdf ea0b f416 de10 d325 d404 da0a 060c
00000030: eeec f8e5 1af5 cc0d cdf4 d3cd 27f9 15d3
00000040: fbda 398f e5cc d3ce e2f6 1122 13f7 451d
00000050: 2907 200b a9df 151f 0826 ec81 d527 1095
00000060: 01dd 30ff f0ce db0e 27e9 03d1 dffc 0bfd
00000070: 2818 05f3 c8db f4e9 22fd 06de ff11 ca04
00000080: f421 0d2c ede7 2014 20d1 f6e6 f5e7 bfd3
00000090: e137 2a26 ebf7 0f3b 08dd 31f5 c8f9 d7c8
000000a0: 6232 4adc a2b0 0002 e81d 1284 b52c de81
000000b0: 16d3 1a11 fba7 0ce2 f81d ecbe ba0c cbc4
000000c0: 18f6 45f4 32bc e4e3 1b10 c7ff 05c4 0609
000000d0: 0ea5 13c6 2ec4 d1ab 15b3 dc0a fbbd 050c
000000e0: dce1 5e10 1d1d 40ec e9e0 52fb d1fa b223
000000f0: 46ff 04f4 818c dbe7 163c e296 eb1f f591
29 34 -24 12 -84 110 24 8
-30 11 -30 -25 114 -114 38 127
9 15 8 -22 6 42 9 -51
-13 9 -37 -42 -18 5 36 -20
-5 -33 -22 11 -12 22 -34 16
-45 37 -44 4 -38 10 6 12
-18 -20 -8 -27 26 -11 -52 13
-51 -12 -45 -51 39 -7 21 -45
-5 -38 57 -113 -27 -52 -45 -50
-30 -10 17 34 19 -9 69 29
41 7 32 11 -87 -33 21 31
8 38 -20 -127 -43 39 16 -107
1 -35 48 -1 -16 -50 -37 14
39 -23 3 -47 -33 -4 11 -3
40 24 5 -13 -56 -37 -12 -23
34 -3 6 -34 -1 17 -54 4
-12 33 13 44 -19 -25 32 20
32 -47 -10 -26 -11 -25 -65 -45
-31 55 42 38 -21 -9 15 59
8 -35 49 -11 -56 -7 -41 -56
98 50 74 -36 -94 -80 0 2
-24 29 18 -124 -75 44 -34 -127
22 -45 26 17 -5 -89 12 -30
-8 29 -20 -66 -70 12 -53 -60
24 -10 69 -12 50 -68 -28 -29
27 16 -57 -1 5 -60 6 9
14 -91 19 -58 46 -60 -47 -85
21 -77 -36 10 -5 -67 5 12
-36 -31 94 16 29 29 64 -20
-23 -32 82 -5 -47 -6 -78 35
70 -1 4 -12 -127 -116 -37 -25
22 60 -30 -106 -21 31 -11 -111

model/stream_8/conv2d_19/Conv2D i1 [16, 5, 1, 16]
00000000: 0b04 4917 16b7 227f ae00 06f1 ee3b e7ec
00000010: 3312 1b0c 10f6 4a12 f21c f905 c6ef fcf9
00000020: 0a27 1eef ef07 1cff b710 ee0f d8fc 1011
00000030: 11f6 13dd f7ee fff3 afe6 07f1 0600 defc
00000040: cc11 1e16 0a07 3fd1 c0d8 fdfe 1719 d733
00000050: fa81 bef8 bff6 c0e9 981a 0d1c 3e05 890b
00000060: aec5 e5c2 dcec ea0f 19c7 4220 f42b 97fc
00000070: ef2f e1dc 23f1 eb0a fe1b 4bfe df24 0225
00000080: 1701 dec2 07cd 04df fee6 4be8 cbcf 1836
00000090: 183b 33c7 6edc f8df 22d6 f9b7 bcbb 5d59
000000a0: 1251 61ed 0cd4 8e0e eb21 09ef db17 04cc
000000b0: fc15 47ea f618 d5f5 c0f9 351f f3ff 14ad
000000c0: e215 280f dd2a ecf1 da07 32e5 1f01 1ebf
000000d0: d8f5 0ffd ae1f f1d3 fe2f e7cf 2e14 fade
000000e0: 1db2 0217 a041 3bd1 e234 19cf e7db 81eb
000000f0: d307 9513 ddff 1fea e5cb ee2d 1d31 d3f5
11 4 73 23 22 -73 34 127
-82 0 6 -15 -18 59 -25 -20
51 18 27 12 16 -10 74 18
-14 28 -7 5 -58 -17 -4 -7
10 39 30 -17 -17 7 28 -1
-73 16 -18 15 -40 -4 16 17
17 -10 19 -35 -9 -18 -1 -13
-81 -26 7 -15 6 0 -34 -4
-52 17 30 22 10 7 63 -47
-64 -40 -3 -2 23 25 -41 51
-6 -127 -66 -8 -65 -10 -64 -23
-104 26 13 28 62 5 -119 11
-82 -59 -27 -62 -36 -20 -22 15
25 -57 66 32 -12 43 -105 -4
-17 47 -31 -36 35 -15 -21 10
-2 27 75 -2 -33 36 2 37
23 1 -34 -62 7 -51 4 -33
-2 -26 75 -24 -53 -49 24 54
24 59 51 -57 110 -36 -8 -33
34 -42 -7 -73 -68 -69 93 89
18 81 97 -19 12 -44 -114 14
-21 33 9 -17 -37 23 4 -52
-4 21 71 -22 -10 24 -43 -11
-64 -7 53 31 -13 -1 20 -83
-30 21 40 15 -35 42 -20 -15
-38 7 50 -27 31 1 30 -65
-40 -11 15 -3 -82 31 -15 -45
-2 47 -25 -49 46 20 -6 -34
29 -78 2 23 -96 65 59 -47
-30 52 25 -49 -25 -37 -127 -21
-45 7 -107 19 -35 -1 31 -22
-27 -53 -18 45 29 49 -45 -11

model/conv2d_18/Conv2D i1 [16, 1, 1, 64]
00000000: b83e 5556 ddd0 c814 d6ce b2cf 37e5 e76c
00000010: 16f9 dc0c 8214 3a4a c92e cc21 b0d2 e44a
00000020: 2ad1 27f5 04e0 55f0 fa61 307f fd55 e7f1
00000030: 5a28 6c37 249f d5f1 0725 663c 9008 414e
00000040: f2f8 f3bf a0e8 c5f2 ed20 3b2c 0a21 e32c
00000050: d102 b765 2ee5 eb2d fa0e e321 567f 13a4
00000060: c0fc bf15 f9fb 14f5 062b d9ef be00 09d0
00000070: e6e7 0830 f1e9 07fe e7e1 33d3 38f3 55f1
00000080: 0f31 ccba 14cb 84bd 55d1 eb56 6b0c 45a7
00000090: 4cbd efea 510e b1ce fdb9 3f34 3fae 21d4
000000a0: 4110 0c21 25f0 afeb 0322 3037 65c5 e623
000000b0: fc29 1756 99fc d681 ac1d b7f6 52ec dae5
000000c0: be5d 629f dbe5 21b9 33f9 1aef cefb d1be
000000d0: bbe1 bb7f 02f1 e9b3 cfba 0839 35cc 34bd
000000e0: 25cc f932 d9b5 3e4f 21ac bdb3 3012 5046
000000f0: ffcd 340b 71f2 106d 29de 13e7 3918 02cb
-72 62 85 86 -35 -48 -56 20
-42 -50 -78 -49 55 -27 -25 108
22 -7 -36 12 -126 20 58 74
-55 46 -52 33 -80 -46 -28 74
42 -47 39 -11 4 -32 85 -16
-6 97 48 127 -3 85 -25 -15
90 40 108 55 36 -97 -43 -15
7 37 102 60 -112 8 65 78
-14 -8 -13 -65 -96 -24 -59 -14
-19 32 59 44 10 33 -29 44
-47 2 -73 101 46 -27 -21 45
-6 14 -29 33 86 127 19 -92
-64 -4 -65 21 -7 -5 20 -11
6 43 -39 -17 -66 0 9 -48
-26 -25 8 48 -15 -23 7 -2
-25 -31 51 -45 56 -13 85 -15
15 49 -52 -70 20 -53 -124 -67
85 -47 -21 86 107 12 69 -89
76 -67 -17 -22 81 14 -79 -50
-3 -71 63 52 63 -82 33 -44
65 16 12 33 37 -16 -81 -21
3 34 48 55 101 -59 -26 35
-4 41 23 86 -103 -4 -42 -127
-84 29 -73 -10 82 -20 -38 -27
-66 93 98 -97 -37 -27 33 -71
51 -7 26 -17 -50 -5 -47 -66
-69 -31 -69 127 2 -15 -23 -77
-49 -70 8 57 53 -52 52 -67
37 -52 -7 50 -39 -75 62 79
33 -84 -67 -77 48 18 80 70
-1 -51 52 11 113 -14 16 109
41 -34 19 -25 57 24 2 -53

model/stream_7/conv2d_17/Conv2D i1 [16, 5, 1, 16]
00000000: 14df d72f 28db fa68 180c e64a cc62 b4d0
00000010: db15 bd01 3bdf 1c36 dc23 1214 e4db cfd9
00000020: ddf9 c4f7 fa39 1833 ca18 ed19 e30d e2e5
00000030: e711 fbaa f407 0d08 1c12 31d9 ca00 199d
00000040: a22a 00d4 3fe8 4810 d139 2f2c 14f8 dc81
00000050: 14dc 4c0e efc3 e4a6 90bb e60e ed13 fefa
00000060: 1c33 3cce 1dda cb0d f1d9 d3c0 13e8 e904
00000070: 2e0b 2a09 f5b1 eedd b9da d0c5 032d d022
00000080: 28dd f324 34d4 ee0b eb2d 170c 2a02 d425
00000090: 1b89 a303 47b6 8122 f717 fa1c 8d19 ce62
000000a0: 10fe 090c 4b2b 2f57 f920 a87f 2964 eab4
000000b0: 0e04 fe14 2f44 1802 06f1 d53d cdd4 fdcc
000000c0: 1033 f2f3 381e fef8 ec29 f9fa e51c fd20
000000d0: dc24 04b5 1cff 2de6 dc3f 2d21 b50e 0e00
000000e0: dc12 30d3 3adb 4f05 d944 220c b314 499f
000000f0: 2fe0 60e8 e927 0ecb a0d6 eddb 252c fe15
20 -33 -41 47 40 -37 -6 104
24 12 -26 74 -52 98 -76 -48
-37 21 -67 1 59 -33 28 54
-36 35 18 20 -28 -37 -49 -39
-35 -7 -60 -9 -6 57 24 51
-54 24 -19 25 -29 13 -30 -27
-25 17 -5 -86 -12 7 13 8
28 18 49 -39 -54 0 25 -99
-94 42 0 -44 63 -24 72 16
-47 57 47 44 20 -8 -36 -127
20 -36 76 14 -17 -61 -28 -90
-112 -69 -26 14 -19 19 -2 -6
28 51 60 -50 29 -38 -53 13
-15 -39 -45 -64 19 -24 -23 4
46 11 42 9 -11 -79 -18 -35
-71 -38 -48 -59 3 45 -48 34
40 -35 -13 36 52 -44 -18 11
-21 45 23 12 42 2 -44 37
27 -119 -93 3 71 -74 -127 34
-9 23 -6 28 -115 25 -50 98
16 -2 9 12 75 43 47 87
-7 32 -88 127 41 100 -22 -76
14 4 -2 20 47 68 24 2
6 -15 -43 61 -51 -44 -3 -52
16 51 -14 -13 56 30 -2 -8
-20 41 -7 -6 -27 28 -3 32
-36 36 4 -75 28 -1 45 -26
-36 63 45 33 -75 14 14 0
-36 18 48 -45 58 -37 79 5
-39 68 34 12 -77 20 73 -97
47 -32 96 -24 -23 39 14 -53
-96 -42 -19 -37 37 44 -2 21

model/conv2d_16/Conv2D i1 [16, 1, 1, 64]
00000000: 303f b22b c734 2514 d607 aa6a cbf1 71ed
00000010: 269e f98b 25e2 a035 04f2 2264 6928 1f10
00000020: 33f5 27cf 01ec c703 e8ff 1db4 3249 f181
00000030: 5bf1 2b98 93c0 ca0a 706f 1652 32b6 06d0
00000040: f7d9 ecdc f9cd 555b 89c2 e80d 1547 eded
00000050: dafa d87f 11fa ea0e ccff f9dc db4c ad05
00000060: cb1f 90fa ec63 c4db b5f7 de03 11b6 d0c6
00000070: 090f aff7 e9f7 183e bb09 c55f 0a39 06f8
00000080: c4af c3b4 56cc e53f 5ed8 2221 fb56 d0db
00000090: e031 b3ff 331f 814f 020e 2f92 4d19 bbda
000000a0: 1c3c f1a1 e9e0 aad7 cf55 da30 a3d4 bf0f
000000b0: 250f 082a f107 18d3 e713 b101 18c2 01d1
000000c0: 3cf5 dc14 c55a ca81 d429 bc5c b9fa 0f71
000000d0: 01df ad1c dd00 e4f3 a3ef 2437 231b 3154
000000e0: 260e f912 efaf c403 002e 2fb5 135d c02a
000000f0: 07b7 3829 0783 084a 0f70 48ce ccca fea2
48 63 -78 43 -57 52 37 20
-42 7 -86 106 -53 -15 113 -19
38 -98 -7 -117 37 -30 -96 53
4 -14 34 100 105 40 31 16
51 -11 39 -49 1 -20 -57 3
-24 -1 29 -76 50 73 -15 -127
91 -15 43 -104 -109 -64 -54 10
112 111 22 82 50 -74 6 -48
-9 -39 -20 -36 -7 -51 85 91
-119 -62 -24 13 21 71 -19 -19
-38 -6 -40 127 17 -6 -22 14
-52 -1 -7 -36 -37 76 -83 5
-53 31 -112 -6 -20 99 -60 -37
-75 -9 -34 3 17 -74 -48 -58
9 15 -81 -9 -23 -9 24 62
-69 9 -59 95 10 57 6 -8
-60 -81 -61 -76 86 -52 -27 63
94 -40 34 33 -5 86 -48 -37
-32 49 -77 -1 51 31 -127 79
2 14 47 -110 77 25 -69 -38
28 60 -15 -95 -23 -32 -86 -41
-49 85 -38 48 -93 -44 -65 15
37 15 8 42 -15 7 24 -45
-25 19 -79 1 24 -62 1 -47
60 -11 -36 20 -59 90 -54 -127
-44 41 -68 92 -71 -6 15 113
1 -33 -83 28 -35 0 -28 -13
-93 -17 36 55 35 27 49 84
38 14 -7 18 -17 -81 -60 3
0 46 47 -75 19 93 -64 42
7 -73 56 41 7 -125 8 74
15 112 72 -50 -52 -54 -2 -94

model/conv2d_15/Conv2D i1 [16, 1, 1, 64]
00000000: d615 5016 f7f5 0c4c f64f ebf6 2cb5 05da
00000010: c1dc f443 3013 171f 701d e331 bdff 62a0
00000020: e625 e104 3925 e8ed a64f dff8 46f0 a9aa
00000030: fa41 3d2d 7f22 28df f9e5 dacf d4c8 d42d
00000040: d2e3 10f1 3caf 123b c718 e7e9 2309 3423
00000050: c849 1419 f905 c92f 2d18 cbdc f50a a427
00000060: 0afb c4d4 41f4 26bb 013c 46e8 46d1 b6a3
00000070: 5102 b012 2acf e1ca 29d7 ce03 81c7 c62a
00000080: c4bf 0107 1c5c f12e 2bc9 b1c5 2681 ea03
00000090: acb6 4dbc f21d 094a 45b4 e837 bcc1 3326
000000a0: e414 0346 1b21 27bc 0914 22e9 22e9 1b8c
000000b0: 5ad9 3013 c86c e302 0e3c e63c cdc4 eee2
000000c0: f8d4 30e8 26da 154c e705 d4c8 38d5 15f8
000000d0: 1217 b014 fa38 c8f8 47d1 d316 0503 e9da
000000e0: 1cd3 fa81 111e bdc3 dc0c 21ad 3fd1 91ee
000000f0: c4b4 fe20 df27 cd2c fda0 bcd6 ee15 9eec
-42 21 80 22 -9 -11 12 76
-10 79 -21 -10 44 -75 5 -38
-63 -36 -12 67 48 19 23 31
112 29 -29 49 -67 -1 98 -96
-26 37 -31 4 57 37 -24 -19
-90 79 -33 -8 70 -16 -87 -86
-6 65 61 45 127 34 40 -33
-7 -27 -38 -49 -44 -56 -44 45
-46 -29 16 -15 60 -81 18 59
-57 24 -25 -23 35 9 52 35
-56 73 20 25 -7 5 -55 47
45 24 -53 -36 -11 10 -92 39
10 -5 -60 -44 65 -12 38 -69
1 60 70 -24 70 -47 -74 -93
81 2 -80 18 42 -49 -31 -54
41 -41 -50 3 -127 -57 -58 42
-60 -65 1 7 28 92 -15 46
43 -55 -79 -59 38 -127 -22 3
-84 -74 77 -68 -14 29 9 74
69 -76 -24 55 -68 -63 51 38
-28 20 3 70 27 33 39 -68
9 20 34 -23 34 -23 27 -116
90 -39 48 19 -56 108 -29 2
14 60 -26 60 -51 -60 -18 -30
-8 -44 48 -24 38 -38 21 76
-25 5 -44 -56 56 -43 21 -8
18 23 -80 20 -6 56 -56 -8
71 -47 -45 22 5 3 -23 -38
28 -45 -6 -127 17 30 -67 -61
-36 12 33 -83 63 -47 -111 -18
-60 -76 -2 32 -33 39 -51 44
-3 -96 -68 -42 -18 21 -98 -20

model/conv2d_14/Conv2D i1 [64, 1, 1, 48]
00000000: dc3b 1830 9abd 39bd 719b dee1 4405 94c1
00000010: 4401 9b62 f9b8 4aca 6cf2 12b1 e717 1fec
00000020: fe81 ffd6 16a4 38d3 ef0a 336d 1bf4 a84a
00000030: 447a d202 29c3 76f7 9010 584b af02 f11d
00000040: 4e00 0549 d053 e835 f5f4 c60c f4e5 47b0
00000050: c3a2 ebcc 81e3 fd46 eaa6 cc07 74cd 6e2a
00000060: c1c5 2dc6 08d7 231a 2759 60aa fc6c 18c5
00000070: dac2 4cd0 f997 d61a c2d3 c809 e9cc 34a9
00000080: 0ee9 1eaf 81de 114d 47ea ea3f 73e2 965c
00000090: 98cf d4e7 6120 5d49 e600 efa7 cf10 7372
000000a0: 5161 31b4 197e c33b 3ccc 0ee3 12ec e016
000000b0: e9f7 9ebb 650b 7f0d 7155 5f37 23fb bd09
000000c0: f91f 04e9 aac2 0328 2881 9106 d71a 58f4
000000d0: bd55 ec1b c110 e2e6 292c 3f4b d7ee a4ca
000000e0: e101 5151 483b 9cf8 06f7 c8e5 1aeb 1701
000000f0: f3f6 ae0d 2ae6 f5b2 120e 25d6 cbb5 6039
-36 59 24 48 -102 -67 57 -67
113 -101 -34 -31 68 5 -108 -63
68 1 -101 98 -7 -72 74 -54
108 -14 18 -79 -25 23 31 -20
-2 -127 -1 -42 22 -92 56 -45
-17 10 51 109 27 -12 -88 74
68 122 -46 2 41 -61 118 -9
-112 16 88 75 -81 2 -15 29
78 0 5 73 -48 83 -24 53
-11 -12 -58 12 -12 -27 71 -80
-61 -94 -21 -52 -127 -29 -3 70
-22 -90 -52 7 116 -51 110 42
-63 -59 45 -58 8 -41 35 26
39 89 96 -86 -4 108 24 -59
-38 -62 76 -48 -7 -105 -42 26
-62 -45 -56 9 -23 -52 52 -87
14 -23 30 -81 -127 -34 17 77
71 -22 -22 63 115 -30 -106 92
-104 -49 -44 -25 97 32 93 73
-26 0 -17 -89 -49 16 115 114
81 97 49 -76 25 126 -61 59
60 -52 14 -29 18 -20 -32 22
-23 -9 -98 -69 101 11 127 13
113 85 95 55 35 -5 -67 9
-7 31 4 -23 -86 -62 3 40
40 -127 -111 6 -41 26 88 -12
-67 85 -20 27 -63 16 -30 -26
41 44 63 75 -41 -18 -92 -54
-31 1 81 81 72 59 -100 -8
6 -9 -56 -27 26 -21 23 1
-13 -10 -82 13 42 -26 -11 -78
18 14 37 -42 -53 -75 96 57

model/stream_4/conv2d_10/Conv2D i1 [16, 5, 1, 16]
00000000: 3a57 4be6 46ef c8f8 20f7 84bd 2efe cad4
00000010: 4607 4322 ed16 8128 141d d00b 07f2 0f13
00000020: 102b ff14 070c bdf8 0cd5 8e39 f9f2 121b
00000030: 5dea cd23 f8fa f412 3bfa ee7a 571f 0249
00000040: 46f8 fd29 0f30 1467 f52e 304a 4b27 1916
00000050: d21d da58 302e be2f 222b 9ca1 d956 06b6
00000060: ca15 0c51 ea00 e21d f921 d314 1417 1dc0
00000070: d427 e421 e0ef 34e8 d54d 1435 29ef 01e7
00000080: f0ba 47d5 f1dd 2fcf f553 e91e 2bfc 1e0b
00000090: 271d 2fce ebe2 16b2 1d7f 3a10 1e8a 583f
000000a0: 1036 c51d 1dc7 15e3 31c5 1881 041f d8b0
000000b0: 2d27 e533 02f5 fae4 2fbb 4294 09d5 c7cb
000000c0: f404 c406 0003 d8e4 fbe3 0d9a deea fa34
000000d0: 1c1b 1a1a 0aec eebb ed24 4f99 d908 e6c7
000000e0: 38eb 13dc 320f c5b8 2c61 2ad4 df23 07b0
000000f0: 7fe0 f1e8 610f 2d39 13f4 de6c 1c21 3802
58 87 75 -26 70 -17 -56 -8
32 -9 -124 -67 46 -2 -54 -44
70 7 67 34 -19 22 -127 40
20 29 -48 11 7 -14 15 19
16 43 -1 20 7 12 -67 -8
12 -43 -114 57 -7 -14 18 27
93 -22 -51 35 -8 -6 -12 18
59 -6 -18 122 87 31 2 73
70 -8 -3 41 15 48 20 103
-11 46 48 74 75 39 25 22
-46 29 -38 88 48 46 -66 47
34 43 -100 -95 -39 86 6 -74
-54 21 12 81 -22 0 -30 29
-7 33 -45 20 20 23 29 -64
-44 39 -28 33 -32 -17 52 -24
-43 77 20 53 41 -17 1 -25
-16 -70 71 -43 -15 -35 47 -49
-11 83 -23 30 43 -4 30 11
39 29 47 -50 -21 -30 22 -78
29 127 58 16 30 -118 88 63
16 54 -59 29 29 -57 21 -29
49 -59 24 -127 4 31 -40 -80
45 39 -27 51 2 -11 -6 -28
47 -69 66 -108 9 -43 -57 -53
-12 4 -60 6 0 3 -40 -28
-5 -29 13 -102 -34 -22 -6 52
28 27 26 26 10 -20 -18 -69
-19 36 79 -103 -39 8 -26 -57
56 -21 19 -36 50 15 -59 -72
44 97 42 -44 -33 35 7 -80
127 -32 -15 -24 97 15 45 57
19 -12 -34 108 28 33 56 2

model/conv2d_9/Conv2D i1 [16, 1, 1, 32]
00000000: 470b d9bb c9a3 fff8 2622 0f7f 94e5 dbf8
00000010: ee1c 1be4 c066 1e53 63de 3e0e eac6 30dd
00000020: 0c81 0412 aec2 174a 384f 6932 a7e6 b388
00000030: bacf c3de 2890 e62b 5496 c4b0 6037 cdb6
00000040: d89b f8fe 07fc f016 4c42 d9fd 1b45 6282
00000050: 4724 f77f 1692 a4c3 c064 c730 fe33 2c29
00000060: 2e42 3081 4ad1 20af 0ae4 03b8 d1b2 2dc8
00000070: 1625 1946 ec33 c521 40e3 eed7 f307 07a3
00000080: cdb9 2619 0f09 cc13 d9e4 b80e e130 39d5
00000090: ce05 3d39 0a2b 047f f41b 0233 45b0 36df
000000a0: fbdf 400b 0741 cd0f a60b 6781 c3bc f01e
000000b0: aecc 49c0 284b f0f9 8cd9 5351 d919 0651
000000c0: 1ce0 e031 c125 0837 b7cd 43fd 262c ea2f
000000d0: 4645 36b7 b755 f47f 8c61 e03b 9a10 2d56
000000e0: fd07 f326 513c d719 e804 3034 dec1 3fd5
000000f0: fcc0 dc58 0bed f6ed fa33 cf03 2d7f 40c0
71 11 -39 -69 -55 -93 -1 -8
38 34 15 127 -108 -27 -37 -8
-18 28 27 -28 -64 102 30 83
99 -34 62 14 -22 -58 48 -35
12 -127 4 18 -82 -62 23 74
56 79 105 50 -89 -26 -77 -120
-70 -49 -61 -34 40 -112 -26 43
84 -106 -60 -80 96 55 -51 -74
-40 -101 -8 -2 7 -4 -16 22
76 66 -39 -3 27 69 98 -126
71 36 -9 127 22 -110 -92 -61
-64 100 -57 48 -2 51 44 41
46 66 48 -127 74 -47 32 -81
10 -28 3 -72 -47 -78 45 -56
22 37 25 70 -20 51 -59 33
64 -29 -18 -41 -13 7 7 -93
-51 -71 38 25 15 9 -52 19
-39 -28 -72 14 -31 48 57 -43
-50 5 61 57 10 43 4 127
-12 27 2 51 69 -80 54 -33
-5 -33 64 11 7 65 -51 15
-90 11 103 -127 -61 -68 -16 30
-82 -52 73 -64 40 75 -16 -7
-116 -39 83 81 -39 25 6 81
28 -32 -32 49 -63 37 8 55
-73 -51 67 -3 38 44 -22 47
70 69 54 -73 -73 85 -12 127
-116 97 -32 59 -102 16 45 86
-3 7 -13 38 81 60 -41 25
-24 4 48 52 -34 -63 63 -43
-4 -64 -36 88 11 -19 -10 -19
-6 51 -49 3 45 127 64 -64

model/conv2d_8/Conv2D i1 [16, 1, 1, 32]
00000000: 5534 1105 b2df 0081 def6 ec36 a493 e120
00000010: 0d48 36c5 b7dc 51b3 f301 d1cf 4ab6 ee01
00000020: 34ef 81dd b7f7 5c0d 1d35 0606 b6f6 e1ff
00000030: 0626 1fca e816 297b 3b28 4f5d 3c5f 38fc
00000040: 38f7 2e3c a08f 18fb cd12 4ae7 076b 2c84
00000050: df1e 13f5 01ae ad2a 5381 b4c9 fc2e 8fb6
00000060: c2e9 369c c8dd 4c1c 65e1 7fef a5d7 f599
00000070: c54a 0fb5 e0c6 cddd fce8 53cd e101 48dd
00000080: 6a6a 47b2 8130 9623 6db8 b64a 1b07 3414
00000090: 0be4 2996 f3ac 5b0d e0b3 4131 2c4b e3fe
000000a0: f5f4 f35f b8e6 3242 bbfe e8d3 7f18 c83a
000000b0: e22c 2810 7719 4baa e227 d21e cab8 abef
000000c0: 32ca 3181 f439 b6c8 543d fe14 c296 13ad
000000d0: 2aa3 c4ff 4fc8 0e29 d6ae 7562 7d0a 7a1d
000000e0: 7a69 4648 26d0 0e05 19e1 b0e1 e54d 2200
000000f0: 031a 1232 f02b 02d8 da81 8bf8 ca3a fb48
85 52 17 5 -78 -33 0 -127
-34 -10 -20 54 -92 -109 -31 32
13 72 54 -59 -73 -36 81 -77
-13 1 -47 -49 74 -74 -18 1
52 -17 -127 -35 -73 -9 92 13
29 53 6 6 -74 -10 -31 -1
6 38 31 -54 -24 22 41 123
59 40 79 93 60 95 56 -4
56 -9 46 60 -96 -113 24 -5
-51 18 74 -25 7 107 44 -124
-33 30 19 -11 1 -82 -83 42
83 -127 -76 -55 -4 46 -113 -74
-62 -23 54 -100 -56 -35 76 28
101 -31 127 -17 -91 -41 -11 -103
-59 74 15 -75 -32 -58 -51 -35
-4 -24 83 -51 -31 1 72 -35
106 106 71 -78 -127 48 -106 35
109 -72 -74 74 27 7 52 20
11 -28 41 -106 -13 -84 91 13
-32 -77 65 49 44 75 -29 -2
-11 -12 -13 95 -72 -26 50 66
-69 -2 -24 -45 127 24 -56 58
-30 44 40 16 119 25 75 -86
-30 39 -46 30 -54 -72 -85 -17
50 -54 49 -127 -12 57 -74 -56
84 61 -2 20 -62 -106 19 -83
42 -93 -60 -1 79 -56 14 41
-42 -82 117 98 125 10 122 29
122 105 70 72 38 -48 14 5
25 -31 -80 -31 -27 77 34 0
3 26 18 50 -16 43 2 -40
-38 -127 -117 -8 -54 58 -5 72

model/stream_6/conv2d_13/Conv2D i1 [16, 5, 1, 16]
00000000: 7ffe d9c2 0efa 5596 24c0 f83a 279b 5d0c
00000010: 35e4 04ee f6dc 03cd 04f0 eb2b 24b6 692f
00000020: 3302 0907 2e1c dce0 10c6 100c 28a9 62ea
00000030: f002 031c e9cb 242b cfcd 1b17 fccb 471e
00000040: 07eb de06 01c7 215a d1bf bdd9 fac8 13e8
00000050: e3cc a8ef 09d5 f06c b120 1483 3f55 2181
00000060: d004 e1db 0fb7 e943 e81e 09dd 2823 5418
00000070: e7fe 21ea 1004 081e d924 2200 142a 1dfb
00000080: f3f1 f105 feea 1edd bf2a fc1a 292c f100
00000090: 1dc7 38c1 11d9 1b0a ee0b f308 f9e4 0b0c
000000a0: 1ae5 f104 e5cb 49cd 0e7f e0f8 0176 c0c7
000000b0: feb5 eedb 2432 06c5 f233 990e c966 2f17
000000c0: 14b9 f5da 1627 5cda 0b17 e717 ea2b 25e5
000000d0: 0bd6 dc04 ce06 58e5 12fa d7f5 0a51 f11d
000000e0: db09 f2ff 17c7 0605 17cc 0c13 fffd f548
000000f0: 3514 bcce 0f48 d5f6 f9f6 c381 f8d6 1ade
127 -2 -39 -62 14 -6 85 -106
36 -64 -8 58 39 -101 93 12
53 -28 4 -18 -10 -36 3 -51
4 -16 -21 43 36 -74 105 47
51 2 9 7 46 28 -36 -32
16 -58 16 12 40 -87 98 -22
-16 2 3 28 -23 -53 36 43
-49 -51 27 23 -4 -53 71 30
7 -21 -34 6 1 -57 33 90
-47 -65 -67 -39 -6 -56 19 -24
-29 -52 -88 -17 9 -43 -16 108
-79 32 20 -125 63 85 33 -127
-48 4 -31 -37 15 -73 -23 67
-24 30 9 -35 40 35 84 24
-25 -2 33 -22 16 4 8 30
-39 36 34 0 20 42 29 -5
-13 -15 -15 5 -2 -22 30 -35
-65 42 -4 26 41 44 -15 0
29 -57 56 -63 17 -39 27 10
-18 11 -13 8 -7 -28 11 12
26 -27 -15 4 -27 -53 73 -51
14 127 -32 -8 1 118 -64 -57
-2 -75 -18 -37 36 50 6 -59
-14 51 -103 14 -55 102 47 23
20 -71 -11 -38 22 39 92 -38
11 23 -25 23 -22 43 37 -27
11 -42 -36 4 -50 6 88 -27
18 -6 -41 -11 10 81 -15 29
-37 9 -14 -1 23 -57 6 5
23 -52 12 19 -1 -3 -11 72
53 20 -68 -50 15 72 -43 -10
-7 -10 -61 -127 -8 -42 26 -34

model/stream_5/conv2d_12/Conv2D i1 [16, 5, 1, 16]
00000000: 2826 d70a cd31 7f3f fac6 f60a 2319 eff8
00000010: 1b02 e6f5 f2fb 170d f9dc e924 12fb df01
00000020: 1afb ee07 eefd f2ff 01f4 e1f3 0524 edde
00000030: 1c0b e404 ecee 1505 fcef d8ef 1316 10fb
00000040: ffd9 dd09 050b 1b05 e8e9 c9f7 fdfb 0cf9
00000050: f18f d03f d28a f5c7 b7cc 34c0 1a2e db3c
00000060: 25c1 1c43 c1e6 48e5 8bba 1a05 e2d3 a744
00000070: 05ce 113e ba2e b329 a61d 4f0f def5 07f0
00000080: 240b 1618 1216 b8c0 d238 d92d 20f0 e6e6
00000090: 2126 f7aa 7ff5 e4e2 1f3d 050d 07ef 52c9
000000a0: d37f a639 7182 c1d6 d811 01dd d74a 102a
000000b0: fd20 e728 35ee ded5 e20c 23f8 f2f6 c0e9
000000c0: 1809 f808 1ed3 d7da e2f6 fafb e61d defd
000000d0: 0c35 f216 18f9 dede 0a0b 2b23 061b dc17
000000e0: bf2a 1711 d10c 0bf2 1d1a 25fb fed2 050c
000000f0: 393a dedb 39db 11b3 e5c1 8681 0d22 c91f
40 38 -41 10 -51 49 127 63
-6 -58 -10 10 35 25 -17 -8
27 2 -26 -11 -14 -5 23 13
-7 -36 -23 36 18 -5 -33 1
26 -5 -18 7 -18 -3 -14 -1
1 -12 -31 -13 5 36 -19 -34
28 11 -28 4 -20 -18 21 5
-4 -17 -40 -17 19 22 16 -5
-1 -39 -35 9 5 11 27 5
-24 -23 -55 -9 -3 -5 12 -7
-15 -113 -48 63 -46 -118 -11 -57
-73 -52 52 -64 26 46 -37 60
37 -63 28 67 -63 -26 72 -27
-117 -70 26 5 -30 -45 -89 68
5 -50 17 62 -70 46 -77 41
-90 29 79 15 -34 -11 7 -16
36 11 22 24 18 22 -72 -64
-46 56 -39 45 32 -16 -26 -26
33 38 -9 -86 127 -11 -28 -30
31 61 5 13 7 -17 82 -55
-45 127 -90 57 113 -126 -63 -42
-40 17 1 -35 -41 74 16 42
-3 32 -25 40 53 -18 -34 -43
-30 12 35 -8 -14 -10 -64 -23
24 9 -8 8 30 -45 -41 -38
-30 -10 -6 -5 -26 29 -34 -3
12 53 -14 22 24 -7 -34 -34
10 11 43 35 6 27 -36 23
-65 42 23 17 -47 12 11 -14
29 26 37 -5 -2 -46 5 12
57 58 -34 -37 57 -37 17 -77
-27 -63 -122 -127 13 34 -55 31

model/conv2d_11/Conv2D i1 [16, 1, 1, 32]
00000000: 3131 ae36 08a2 39e3 9920 3def ed13 feed
00000010: 101d d3e7 8194 e02d d21d d215 0a3f b8f7
00000020: e85b ed2e 2c41 4e1f 5e81 28eb c5e4 5127
00000030: 42e7 3bae 4cef c2b4 3959 3a4b 7e01 fa91
00000040: 111b 7f60 dffb bbe4 77cd dc43 3bc3 17f4
00000050: 2d0f bb9f a070 1111 27d9 d6e4 b543 ef12
00000060: 48bb f373 b31c c48e 3312 bbdf 8438 fb81
00000070: b123 5aef 6287 172f bfe2 2cfb 93b1 b143
00000080: 1b26 e4e9 d7b3 d717 d9d6 ae57 eed0 6325
00000090: 7c1e e688 3330 123e e4b3 dc32 7f55 0789
000000a0: 210f 1dfb 0cbd 2327 1a2b 4ace 1e34 f723
000000b0: 08cb bb12 81f4 b223 2595 0c9a f11b 9de7
000000c0: f6da b927 5976 4a9e 11be 2595 a814 e343
000000d0: 366b fda3 81df a9a9 274c 12a3 d71f 8ca9
000000e0: a029 e2e9 e63c 0ded 23ee bcfe f27f a91e
000000f0: dd1c ae57 c2de e3bc bb18 ecdf c4ca e923
49 49 -82 54 8 -94 57 -29
-103 32 61 -17 -19 19 -2 -19
16 29 -45 -25 -127 -108 -32 45
-46 29 -46 21 10 63 -72 -9
-24 91 -19 46 44 65 78 31
94 -127 40 -21 -59 -28 81 39
66 -25 59 -82 76 -17 -62 -76
57 89 58 75 126 1 -6 -111
17 27 127 96 -33 -5 -69 -28
119 -51 -36 67 59 -61 23 -12
45 15 -69 -97 -96 112 17 17
39 -39 -42 -28 -75 67 -17 18
72 -69 -13 115 -77 28 -60 -114
51 18 -69 -33 -124 56 -5 -127
-79 35 90 -17 98 -121 23 47
-65 -30 44 -5 -109 -79 -79 67
27 38 -28 -23 -41 -77 -41 23
-39 -42 -82 87 -18 -48 99 37
124 30 -26 -120 51 48 18 62
-28 -77 -36 50 127 85 7 -119
33 15 29 -5 12 -67 35 39
26 43 74 -50 30 52 -9 35
8 -53 -69 18 -127 -12 -78 35
37 -107 12 -102 -15 27 -99 -25
-10 -38 -71 39 89 118 74 -98
17 -66 37 -107 -88 20 -29 67
54 107 -3 -93 -127 -33 -87 -87
39 76 18 -93 -41 31 -116 -87
-96 41 -30 -23 -26 60 13 -19
35 -18 -68 -2 -14 127 -87 30
-35 28 -82 87 -62 -34 -29 -68
-69 24 -20 -33 -60 -54 -23 35

model/conv2d_7/Conv2D i1 [32, 1, 1, 48]
00000000: 01e6 3b55 3408 032c 6625 8121 33f6 0867
00000010: ff27 a96a fecc a914 b413 1df6 b5cf 27ca
00000020: fa03 ed00 f6fe ab04 10e7 160e 07d1 ff4a
00000030: 221f b81c 7f5c 4709 16e9 c23f 3cea 5624
00000040: c4cb f8cd 2fcd f934 0d2f e200 ca4c f9e3
00000050: 40fe d3de 05f4 ef0d 21e8 eccf 093c 30f1
00000060: ce23 dac3 0704 00e8 c911 2be4 70c9 a7f4
00000070: aabe 6ed8 1c41 01d8 52d2 d423 81e0 c9ab
00000080: e00b 1aef 0214 0ff7 58ff 6729 05cc 3a47
00000090: 1711 0aea 1198 6eca c522 4212 f9c4 acda
000000a0: 2f7f 55c8 ba1b 73cf 0adc 0ce4 0d68 aae9
000000b0: 4ff8 3347 1c08 11a8 bb98 ed54 dd10 26b5
000000c0: 97c2 46c7 3dca f7b6 0fe0 a9c2 81de c6b9
000000d0: c735 c71c 1259 de0a 10c6 ddca fd31 11dd
000000e0: 521d 69e0 dbc6 e62e 35f5 dd58 eb9a cbc5
000000f0: a831 0ed6 2311 13fd c4f0 9c04 b13e 64e1
1 -26 59 85 52 8 3 44
102 37 -127 33 51 -10 8 103
-1 39 -87 106 -2 -52 -87 20
-76 19 29 -10 -75 -49 39 -54
-6 3 -19 0 -10 -2 -85 4
16 -25 22 14 7 -47 -1 74
34 31 -72 28 127 92 71 9
22 -23 -62 63 60 -22 86 36
-60 -53 -8 -51 47 -51 -7 52
13 47 -30 0 -54 76 -7 -29
64 -2 -45 -34 5 -12 -17 13
33 -24 -20 -49 9 60 48 -15
-50 35 -38 -61 7 4 0 -24
-55 17 43 -28 112 -55 -89 -12
-86 -66 110 -40 28 65 1 -40
82 -46 -44 35 -127 -32 -55 -85
-32 11 26 -17 2 20 15 -9
88 -1 103 41 5 -52 58 71
23 17 10 -22 17 -104 110 -54
-59 34 66 18 -7 -60 -84 -38
47 127 85 -56 -70 27 115 -49
10 -36 12 -28 13 104 -86 -23
79 -8 51 71 28 8 17 -88
-69 -104 -19 84 -35 16 38 -75
-105 -62 70 -57 61 -54 -9 -74
15 -32 -87 -62 -127 -34 -58 -71
-57 53 -57 28 18 89 -34 10
16 -58 -35 -54 -3 49 17 -35
82 29 105 -32 -37 -58 -26 46
53 -11 -35 88 -21 -102 -53 -59
-88 49 14 -42 35 17 19 -3
-60 -16 -100 4 -79 62 100 -31

model/stream_3/conv2d_6/Conv2D i1 [16, 3, 1, 16]
00000000: ffcd 30c3 36ed f53e f6e0 54bb 3b81 fe5e
00000010: 03ee 0d29 0827 df15 dd0e 382f 20cb 43d5
00000020: 2fb6 c4e7 e8f9 a531 1f22 d3f0 1609 0c9f
00000030: 4556 cdb4 31c7 f55a d17f 4ad3 0a9c 1aeb
00000040: d90c 2709 14f6 fcca 40fd 330c 0000 f509
00000050: b8ca b9c6 0518 e4db ddd6 bdde 1b0d 1002
00000060: d9ae 59f0 3ebd 7fe6 ffb1 ca1c 0da4 2dfd
00000070: 0246 202b f949 dcf2 4cef 2ee2 fded d3bc
00000080: 1249 e6b6 920f 2102 a250 14bf 9bd9 b0a8
00000090: ea22 edec 4f26 abd4 e41d 7f0f ff58 4512
000000a0: dec4 2d26 03da e8e9 f400 3417 e5da 240d
000000b0: ddcf 0506 0c0a 36f2 f017 19bb 05d9 22d0
000000c0: 020b 8df9 1327 597e 8ff0 540e 9210 1549
000000d0: fbd7 cab7 fb51 fd18 1ced fdd9 e639 2413
000000e0: 713c 34da 002d 8627 3f0f ef81 8e6a 94b9
000000f0: b92e d10e 8f07 5c57 92f9 3d50 e7bc cfe9
-1 -51 48 -61 54 -19 -11 62
-10 -32 84 -69 59 -127 -2 94
3 -18 13 41 8 39 -33 21
-35 14 56 47 32 -53 67 -43
47 -74 -60 -25 -24 -7 -91 49
31 34 -45 -16 22 9 12 -97
69 86 -51 -76 49 -57 -11 90
-47 127 74 -45 10 -100 26 -21
-39 12 39 9 20 -10 -4 -54
64 -3 51 12 0 0 -11 9
-72 -54 -71 -58 5 24 -28 -37
-35 -42 -67 -34 27 13 16 2
-39 -82 89 -16 62 -67 127 -26
-1 -79 -54 28 13 -92 45 -3
2 70 32 43 -7 73 -36 -14
76 -17 46 -30 -3 -19 -45 -68
18 73 -26 -74 -110 15 33 2
-94 80 20 -65 -101 -39 -80 -88
-22 34 -19 -20 79 38 -85 -44
-28 29 127 15 -1 88 69 18
-34 -60 45 38 3 -38 -24 -23
-12 0 52 23 -27 -38 36 13
-35 -49 5 6 12 10 54 -14
-16 23 25 -69 5 -39 34 -48
2 11 -115 -7 19 39 89 126
-113 -16 84 14 -110 16 21 73
-5 -41 -54 -73 -5 81 -3 24
28 -19 -3 -39 -26 57 36 19
113 60 52 -38 0 45 -122 39
63 15 -17 -127 -114 106 -108 -71
-71 46 -47 14 -113 7 92 87
-110 -7 61 80 -25 -68 -49 -23

model/stream_2/conv2d_5/Conv2D i1 [16, 3, 1, 16]
00000000: ba17 db6e 3186 efbe 81b6 3ee8 6103 ece5
00000010: d196 8f66 cdfa c8c0 b4e9 363d d9eb 5e2f
00000020: 2af2 a4d5 fc1f e615 d861 4ed4 1d03 d046
00000030: e0b1 e07f c6b0 b366 bcac 5c99 0825 411c
00000040: 1b1f cf03 c106 ef3d 239e f30e fdd0 15af
00000050: dbac bade bd37 ae01 29c6 d2e0 d5de 0c0b
00000060: f0e9 1da5 c7e8 01c6 da7f fbe2 d904 5836
00000070: 1455 5ca6 bc33 6bd2 fd2b 26d8 232d 78dd
00000080: 6177 2a3c 4d19 f13e f550 1309 7b06 5568
00000090: 7f28 24e9 c254 5acc 1dce a11f 0b3e 064b
000000a0: 29d0 1531 7709 1f07 3589 ca4f f003 da36
000000b0: 69e1 e94e 33af 3478 20cb c607 c6f0 d41f
000000c0: e61f fb04 f9ef 1dd2 431b 8155 a632 6add
000000d0: 10bd f2f3 db4e 09ee 32cb 0913 fae2 22c1
000000e0: a509 09dc e8e8 e62e ce3e fcb8 1fca ec2d
000000f0: 03fc 0df3 1e0c 1d1d 05df d8af c818 2fc1
-70 23 -37 110 49 -122 -17 -66
-127 -74 62 -24 97 3 -20 -27
-47 -106 -113 102 -51 -6 -56 -64
-76 -23 54 61 -39 -21 94 47
42 -14 -92 -43 -4 31 -26 21
-40 97 78 -44 29 3 -48 70
-32 -79 -32 127 -58 -80 -77 102
-68 -84 92 -103 8 37 65 28
27 31 -49 3 -63 6 -17 61
35 -98 -13 14 -3 -48 21 -81
-37 -84 -70 -34 -67 55 -82 1
41 -58 -46 -32 -43 -34 12 11
-16 -23 29 -91 -57 -24 1 -58
-38 127 -5 -30 -39 4 88 54
20 85 92 -90 -68 51 107 -46
-3 43 38 -40 35 45 120 -35
97 119 42 60 77 25 -15 62
-11 80 19 9 123 6 85 104
127 40 36 -23 -62 84 90 -52
29 -50 -95 31 11 62 6 75
41 -48 21 49 119 9 31 7
53 -119 -54 79 -16 3 -38 54
105 -31 -23 78 51 -81 52 120
32 -53 -58 7 -58 -16 -44 31
-26 31 -5 4 -7 -17 29 -46
67 27 -127 85 -90 50 106 -35
16 -67 -14 -13 -37 78 9 -18
50 -53 9 19 -6 -30 34 -63
-91 9 9 -36 -24 -24 -26 46
-50 62 -4 -72 31 -54 -20 45
3 -4 13 -13 30 12 29 29
5 -33 -40 -81 -56 24 47 -63

model/conv2d_4/Conv2D i1 [16, 1, 1, 32]
00000000: 5ff7 2174 4315 155d a9c4 e8ce 42d6 437d
00000010: 07ef b4ad 4038 26be 5e2b f3dd 81ff 2862
00000020: 38b7 2f20 e534 63c2 30c3 1da6 e514 e5be
00000030: f4a3 ed5d 233c da27 fceb 1236 e981 3959
00000040: 4993 5e0d d77f 5254 5bb4 3803 2d46 f7c2
00000050: d519 eead 72af ae97 1e1e e879 031d 56e7
00000060: d11b 0002 f505 0240 4493 98dc ab06 1040
00000070: 2ff8 ed26 f2e0 0075 81cb c95f 7ff9 a755
00000080: 2104 ea18 a5bd 025f 4ec9 138f b35c c77f
00000090: f90a db1b 031e d7ee 542e e3e5 f7ee 43ef
000000a0: eac2 9e10 302e 1dd9 eac3 f712 2bc9 daa4
000000b0: 1d1f 16cf f8df 8610 d07f 04d1 10be c8e5
000000c0: 45f1 22c3 cc1e eeca 2309 f5f0 50b0 e417
000000d0: 33d5 c9bf 6381 f707 9737 0ae0 c02a a8f2
000000e0: 1a83 ea01 ef1f f826 0640 b4a6 7131 cec5
000000f0: a916 e84a 177d e7be d9ea 16bc 35c4 7f27
95 -9 33 116 67 21 21 93
-87 -60 -24 -50 66 -42 67 125
7 -17 -76 -83 64 56 38 -66
94 43 -13 -35 -127 -1 40 98
56 -73 47 32 -27 52 99 -62
48 -61 29 -90 -27 20 -27 -66
-12 -93 -19 93 35 60 -38 39
-4 -21 18 54 -23 -127 57 89
73 -109 94 13 -41 127 82 84
91 -76 56 3 45 70 -9 -62
-43 25 -18 -83 114 -81 -82 -105
30 30 -24 121 3 29 86 -25
-47 27 0 2 -11 5 2 64
68 -109 -104 -36 -85 6 16 64
47 -8 -19 38 -14 -32 0 117
-127 -53 -55 95 127 -7 -89 85
33 4 -22 24 -91 -67 2 95
78 -55 19 -113 -77 92 -57 127
-7 10 -37 27 3 30 -41 -18
84 46 -29 -27 -9 -18 67 -17
-22 -62 -98 16 48 46 29 -39
-22 -61 -9 18 43 -55 -38 -92
29 31 22 -49 -8 -33 -122 16
-48 127 4 -47 16 -66 -56 -27
69 -15 34 -61 -52 30 -18 -54
35 9 -11 -16 80 -80 -28 23
51 -43 -55 -65 99 -127 -9 7
-105 55 10 -32 -64 42 -88 -14
26 -125 -22 1 -17 31 -8 38
6 64 -76 -90 113 49 -50 -59
-87 22 -24 74 23 125 -25 -66
-39 -22 22 -68 53 -60 127 39

model/stream_1/conv2d_3/Conv2D i1 [16, 3, 1, 16]
00000000: 025a 4f19 19ee 4e97 02d4 1ea5 3dd2 1e1e
00000010: 0739 3643 05f0 442e 0bbb 03e7 3318 13e2
00000020: fcc4 40c0 7007 03c1 0da8 7f31 feed f503
00000030: 5c43 e911 1373 165b 0f71 5aae 0ae8 db53
00000040: c71f a644 55fb a8f8 dbf5 d132 e7d5 04b3
00000050: b3ed 47ce d7a2 4d96 bb38 f853 a856 db81
00000060: d5db 2a8b 2532 1d2d 3e66 0db6 b5d4 4a0a
00000070: 34d8 ef09 e226 a83f 1d13 fab9 edda 4520
00000080: ebfc d4e9 8122 20b6 1034 9d87 0dd0 de59
00000090: b7d7 fe36 e2ba d4e1 31e0 b8ff efb9 0a1d
000000a0: fff7 dcd2 010f 170a 0f00 a403 c8da f410
000000b0: f5f6 2de9 2345 7fdf e310 3323 3d3c ccbd
000000c0: b9cb d4f7 4bdf 0905 ecaa 224a 3dcc fc07
000000d0: cdea 17fe 40dc 23d0 eaf6 29e7 db0f 0cc6
000000e0: 210c 2dc8 d53e e3ee 0114 2213 df2a 1681
000000f0: 4560 ccd7 3ee6 64ed 8169 0b2a e467 23eb
2 90 79 25 25 -18 78 -105
2 -44 30 -91 61 -46 30 30
7 57 54 67 5 -16 68 46
11 -69 3 -25 51 24 19 -30
-4 -60 64 -64 112 7 3 -63
13 -88 127 49 -2 -19 -11 3
92 67 -23 17 19 115 22 91
15 113 90 -82 10 -24 -37 83
-57 31 -90 68 85 -5 -88 -8
-37 -11 -47 50 -25 -43 4 -77
-77 -19 71 -50 -41 -94 77 -106
-69 56 -8 83 -88 86 -37 -127
-43 -37 42 -117 37 50 29 45
62 102 13 -74 -75 -44 74 10
52 -40 -17 9 -30 38 -88 63
29 19 -6 -71 -19 -38 69 32
-21 -4 -44 -23 -127 34 32 -74
16 52 -99 -121 13 -48 -34 89
-73 -41 -2 54 -30 -70 -44 -31
49 -32 -72 -1 -17 -71 10 29
-1 -9 -36 -46 1 15 23 10
15 0 -92 3 -56 -38 -12 16
-11 -10 45 -23 35 69 127 -33
-29 16 51 35 61 60 -52 -67
-71 -53 -44 -9 75 -33 9 5
-20 -86 34 74 61 -52 -4 7
-51 -22 23 -2 64 -36 35 -48
-22 -10 41 -25 -37 15 12 -58
33 12 45 -56 -43 62 -29 -18
1 20 34 19 -33 42 22 -127
69 96 -52 -41 62 -26 100 -19
-127 105 11 42 -28 103 35 -21

model/conv2d_2/Conv2D i1 [16, 1, 1, 32]
00000000: 9981 fe47 1eb2 053c d70f b8ec d952 7452
00000010: 4123 6c30 2a95 0948 a0e7 02ce 583f 12e7
00000020: 7fff c7e7 4c06 bc64 e44c bdb6 11c0 7964
00000030: dda6 c513 d814 bed9 cb9d 9b50 f158 1522
00000040: 1ff9 349c 1d06 e88d d1d3 c50d 0cc2 b9dd
00000050: 9781 f31b d40a a617 5701 3d7d d721 b7de
00000060: 142d f546 1323 0d9d 4209 ad75 17e3 20c6
00000070: 0821 7f37 4a6c 08f2 425b 4a49 b109 0f1f
00000080: b8c4 145d 340b 7847 8194 38a9 cb1f f1c8
00000090: d8af 4a9f 8bd1 4fbb b0c3 aadf 6818 df4b
000000a0: d7d5 81f8 3410 fdcb d037 ebc1 1bf8 39b4
000000b0: f0bf 5611 c3ef e779 2f3d b610 f740 0527
000000c0: 0b3d 21e0 7f43 d20a 05c4 b10f 1419 ee13
000000d0: 53cd 1125 fde8 34c9 15ed c307 1565 0256
000000e0: e836 de41 daa3 30f7 e818 b910 fae8 ffe6
000000f0: e72c 2981 d5ab d547 b911 daed f1f0 ce0b
-103 -127 -2 71 30 -78 5 60
-41 15 -72 -20 -39 82 116 82
65 35 108 48 42 -107 9 72
-96 -25 2 -50 88 63 18 -25
127 -1 -57 -25 76 6 -68 100
-28 76 -67 -74 17 -64 121 100
-35 -90 -59 19 -40 20 -66 -39
-53 -99 -101 80 -15 88 21 34
31 -7 52 -100 29 6 -24 -115
-47 -45 -59 13 12 -62 -71 -35
-105 -127 -13 27 -44 10 -90 23
87 1 61 125 -41 33 -73 -34
20 45 -11 70 19 35 13 -99
66 9 -83 117 23 -29 32 -58
8 33 127 55 74 108 8 -14
66 91 74 73 -79 9 15 31
-72 -60 20 93 52 11 120 71
-127 -108 56 -87 -53 31 -15 -56
-40 -81 74 -97 -117 -47 79 -69
-80 -61 -86 -33 104 24 -33 75
-41 -43 -127 -8 52 16 -3 -53
-48 55 -21 -63 27 -8 57 -76
-16 -65 86 17 -61 -17 -25 121
47 61 -74 16 -9 64 5 39
11 61 33 -32 127 67 -46 10
5 -60 -79 15 20 25 -18 19
83 -51 17 37 -3 -24 52 -55
21 -19 -61 7 21 101 2 86
-24 54 -34 65 -38 -93 48 -9
-24 24 -71 16 -6 -24 -1 -26
-25 44 41 -127 -43 -85 -43 71
-71 17 -38 -19 -15 -16 -50 11

model/conv2d_1/Conv2D i1 [16, 1, 1, 32]
00000000: 08bd 0435 114c 81f4 3246 eef3 1ccd cb3c
00000010: 330c 38db 71ff 4d45 f2f1 19c8 0a28 b8f6
00000020: 81fd 1f1b c0cc 41b3 6ce1 043c ca48 e818
00000030: c9cf c120 d7c9 5ccf e1e9 0726 3e02 56ed
00000040: 1c81 1f4a 0357 dccc ff00 ddd9 f4ae 5c96
00000050: da38 b28a e91e 83fd 20ae f311 1bf6 94df
00000060: f4c4 47be df34 06db 03d1 07da 2d56 f009
00000070: dec2 dde4 7f0c 020a b4f2 07dd cd49 d318
00000080: 1811 f403 8f30 7f0c 2230 e4d5 db05 ced3
00000090: 3b76 f7d4 1cd2 c73a b8e0 a8d4 f658 b9fd
000000a0: 0214 c30f 2227 1028 40f3 0cf2 815a cc33
000000b0: cf34 0915 cfbd 1364 da24 8507 303a 0807
000000c0: 43f3 3bce a5f2 d8bb 15f0 eb38 1081 210b
000000d0: 2fef bfc1 1d46 c33f eae6 b621 3c00 3404
000000e0: e4f8 aaf9 481e 7f13 b222 5cce eac4 b508
000000f0: b74b ff16 bb15 0220 175a c8e9 b005 26cc
8 -67 4 53 17 76 -127 -12
50 70 -18 -13 28 -51 -53 60
51 12 56 -37 113 -1 77 69
-14 -15 25 -56 10 40 -72 -10
-127 -3 31 27 -64 -52 65 -77
108 -31 4 60 -54 72 -24 24
-55 -49 -63 32 -41 -55 92 -49
-31 -23 7 38 62 2 86 -19
28 -127 31 74 3 87 -36 -52
-1 0 -35 -39 -12 -82 92 -106
-38 56 -78 -118 -23 30 -125 -3
32 -82 -13 17 27 -10 -108 -33
-12 -60 71 -66 -33 52 6 -37
3 -47 7 -38 45 86 -16 9
-34 -62 -35 -28 127 12 2 10
-76 -14 7 -35 -51 73 -45 24
24 17 -12 3 -113 48 127 12
34 48 -28 -43 -37 5 -50 -45
59 118 -9 -44 28 -46 -57 58
-72 -32 -88 -44 -10 88 -71 -3
2 20 -61 15 34 39 16 40
64 -13 12 -14 -127 90 -52 51
-49 52 9 21 -49 -67 19 100
-38 36 -123 7 48 58 8 7
67 -13 59 -50 -91 -14 -40 -69
21 -16 -21 56 16 -127 33 11
47 -17 -65 -63 29 70 -61 63
-22 -26 -74 33 60 0 52 4
-28 -8 -86 -7 72 30 127 19
-78 34 92 -50 -22 -60 -75 8
-73 75 -1 22 -69 21 2 32
23 90 -56 -23 -80 5 38 -52

model/stream/conv2d/Conv2D i1 [32, 5, 1, 40]
00000000: b6ba f0ea d7d9 0b1d 25ef 16c2 efec d6f0
00000010: c7c1 c581 c2b7 171d 1102 270a 23ed fcf8
00000020: 0a01 32fc 1a2f e8ec c61b 0dff b3b7 b6bc
00000030: 3302 2410 120a d809 f2af 0d0e cee5 284d
00000040: 5448 2408 21ed 1bcd fc1c 2c14 25f2 05f9
00000050: 9e0a 043a 400b deda 1913 1c20 162b 092d
00000060: ebfa 0a13 03f2 1f67 4d66 190e f8f7 ee05
00000070: f8df 1dc7 f2ee f5f7 a4db fb1f 3e15 4107
00000080: fcdf febb fdce e0e1 2329 240a 14e6 0030
00000090: 1941 fd07 d7fb 02f6 f0ee 0fdc d80a f699
000000a0: e5dc 16da 1a38 3d0c f4bd c4e2 f4e1 28ef
000000b0: 2720 3f06 ff2e de2f 0e2a bff9 d79b be0b
000000c0: d294 ffbb f5d7 e3a3 1552 2b61 fae5 1746
000000d0: 3418 3b32 333a f7f7 4f72 2361 3a59 109d
000000e0: cdf5 163d 0503 c0f3 1abf c8eb 0b0f 1e39
000000f0: f738 3f3f 02d3 c6de cef9 1837 0a42 5763
-74 -70 -16 -22 -41 -39 11 29
37 -17 22 -62 -17 -20 -42 -16
-57 -63 -59 -127 -62 -73 23 29
17 2 39 10 35 -19 -4 -8
10 1 50 -4 26 47 -24 -20
-58 27 13 -1 -77 -73 -74 -68
51 2 36 16 18 10 -40 9
-14 -81 13 14 -50 -27 40 77
84 72 36 8 33 -19 27 -51
-4 28 44 20 37 -14 5 -7
-98 10 4 58 64 11 -34 -38
25 19 28 32 22 43 9 45
-21 -6 10 19 3 -14 31 103
77 102 25 14 -8 -9 -18 5
-8 -33 29 -57 -14 -18 -11 -9
-92 -37 -5 31 62 21 65 7
-4 -33 -2 -69 -3 -50 -32 -31
35 41 36 10 20 -26 0 48
25 65 -3 7 -41 -5 2 -10
-16 -18 15 -36 -40 10 -10 -103
-27 -36 22 -38 26 56 61 12
-12 -67 -60 -30 -12 -31 40 -17
39 32 63 6 -1 46 -34 47
14 42 -65 -7 -41 -101 -66 11
-46 -108 -1 -69 -11 -41 -29 -93
21 82 43 97 -6 -27 23 70
52 24 59 50 51 58 -9 -9
79 114 35 97 58 89 16 -99
-51 -11 22 61 5 3 -64 -13
26 -65 -56 -21 11 15 30 57
-9 56 63 63 2 -45 -58 -34
-50 -7 24 55 10 66 87 99

tfl.pseudo_qconst i1 [1, 4, 1, 16] scale=0.020649668 zero_point=-128
00000000: 8080 8080 8080 8080 8080 8080 8080 8080
00000010: 8080 8080 8080 8080 8080 8080 8080 8080
00000020: 8080 8080 8080 8080 8080 8080 8080 8080
00000030: 8080 8080 8080 8080 8080 8080 8080 8080
0.0 0.0 0.0 0.0 0.0 0.0 0.0 0.0
0.0 0.0 0.0 0.0 0.0 0.0 0.0 0.0
0.0 0.0 0.0 0.0 0.0 0.0 0.0 0.0
0.0 0.0 0.0 0.0 0.0 0.0 0.0 0.0
0.0 0.0 0.0 0.0 0.0 0.0 0.0 0.0
0.0 0.0 0.0 0.0 0.0 0.0 0.0 0.0
0.0 0.0 0.0 0.0 0.0 0.0 0.0 0.0
0.0 0.0 0.0 0.0 0.0 0.0 0.0 0.0

tfl.pseudo_qconst1 i1 [1, 4, 1, 16] scale=0.026410222 zero_point=-128
00000000: 8080 8080 8080 8080 8080 8080 8080 8080
00000010: 8080 8080 8080 8080 8080 8080 8080 8080
00000020: 8080 8080 8080 8080 8080 8080 8080 8080
00000030: 8080 8080 8080 8080 8080 8080 8080 8080
0.0 0.0 0.0 0.0 0.0 0.0 0.0 0.0
0.0 0.0 0.0 0.0 0.0 0.0 0.0 0.0
0.0 0.0 0.0 0.0 0.0 0.0 0.0 0.0
0.0 0.0 0.0 0.0 0.0 0.0 0.0 0.0
0.0 0.0 0.0 0.0 0.0 0.0 0.0 0.0
0.0 0.0 0.0 0.0 0.0 0.0 0.0 0.0
0.0 0.0 0.0 0.0 0.0 0.0 0.0 0.0
0.0 0.0 0.0 0.0 0.0 0.0 0.0 0.0

tfl.pseudo_qconst2 i1 [1, 4, 1, 16] scale=0.029369764 zero_point=-128
00000000: 8080 8080 8080 8080 8080 8080 8080 8080
00000010: 8080 8080 8080 8080 8080 8080 8080 8080
00000020: 8080 8080 8080 8080 8080 8080 8080 8080
00000030: 8080 8080 8080 8080 8080 8080 8080 8080
0.0 0.0 0.0 0.0 0.0 0.0 0.0 0.0
0.0 0.0 0.0 0.0 0.0 0.0 0.0 0.0
0.0 0.0 0.0 0.0 0.0 0.0 0.0 0.0
0.0 0.0 0.0 0.0 0.0 0.0 0.0 0.0
0.0 0.0 0.0 0.0 0.0 0.0 0.0 0.0
0.0 0.0 0.0 0.0 0.0 0.0 0.0 0.0
0.0 0.0 0.0 0.0 0.0 0.0 0.0 0.0
0.0 0.0 0.0 0.0 0.0 0.0 0.0 0.0

tfl.pseudo_qconst3 i1 [1, 4, 1, 16] scale=0.02166613 zero_point=-128
00000000: 8080 8080 8080 8080 8080 8080 8080 8080
00000010: 8080 8080 8080 8080 8080 8080 8080 8080
00000020: 8080 8080 8080 8080 8080 8080 8080 8080
00000030: 8080 8080 8080 8080 8080 8080 8080 8080
0.0 0.0 0.0 0.0 0.0 0.0 0.0 0.0
0.0 0.0 0.0 0.0 0.0 0.0 0.0 0.0
0.0 0.0 0.0 0.0 0.0 0.0 0.0 0.0
0.0 0.0 0.0 0.0 0.0 0.0 0.0 0.0
0.0 0.0 0.0 0.0 0.0 0.0 0.0 0.0
0.0 0.0 0.0 0.0 0.0 0.0 0.0 0.0
0.0 0.0 0.0 0.0 0.0 0.0 0.0 0.0
0.0 0.0 0.0 0.0 0.0 0.0 0.0 0.0

tfl.pseudo_qconst4 i1 [1, 4, 1, 16] scale=0.024011763 zero_point=-128
00000000: 8080 8080 8080 8080 8080 8080 8080 8080
00000010: 8080 8080 8080 8080 8080 8080 8080 8080
00000020: 8080 8080 8080 8080 8080 8080 8080 8080
00000030: 8080 8080 8080 8080 8080 8080 8080 8080
0.0 0.0 0.0 0.0 0.0 0.0 0.0 0.0
0.0 0.0 0.0 0.0 0.0 0.0 0.0 0.0
0.0 0.0 0.0 0.0 0.0 0.0 0.0 0.0
0.0 0.0 0.0 0.0 0.0 0.0 0.0 0.0
0.0 0.0 0.0 0.0 0.0 0.0 0.0 0.0
0.0 0.0 0.0 0.0 0.0 0.0 0.0 0.0
0.0 0.0 0.0 0.0 0.0 0.0 0.0 0.0
0.0 0.0 0.0 0.0 0.0 0.0 0.0 0.0

tfl.pseudo_qconst5 i1 [1, 4, 1, 16] scale=0.023992917 zero_point=-128
00000000: 8080 8080 8080 8080 8080 8080 8080 8080
00000010: 8080 8080 8080 8080 8080 8080 8080 8080
00000020: 8080 8080 8080 8080 8080 8080 8080 8080
00000030: 8080 8080 8080 8080 8080 8080 8080 8080
0.0 0.0 0.0 0.0 0.0 0.0 0.0 0.0
0.0 0.0 0.0 0.0 0.0 0.0 0.0 0.0
0.0 0.0 0.0 0.0 0.0 0.0 0.0 0.0
0.0 0.0 0.0 0.0 0.0 0.0 0.0 0.0
0.0 0.0 0.0 0.0 0.0 0.0 0.0 0.0
0.0 0.0 0.0 0.0 0.0 0.0 0.0 0.0
0.0 0.0 0.0 0.0 0.0 0.0 0.0 0.0
0.0 0.0 0.0 0.0 0.0 0.0 0.0 0.0

tfl.pseudo_qconst6 i1 [1, 2, 1, 16] scale=0.021196455 zero_point=-128
00000000: 8080 8080 8080 8080 8080 8080 8080 8080
00000010: 8080 8080 8080 8080 8080 8080 8080 8080
0.0 0.0 0.0 0.0 0.0 0.0 0.0 0.0
0.0 0.0 0.0 0.0 0.0 0.0 0.0 0.0
0.0 0.0 0.0 0.0 0.0 0.0 0.0 0.0
0.0 0.0 0.0 0.0 0.0 0.0 0.0 0.0

tfl.pseudo_qconst7 i1 [1, 2, 1, 16] scale=0.019465366 zero_point=-128
00000000: 8080 8080 8080 8080 8080 8080 8080 8080
00000010: 8080 8080 8080 8080 8080 8080 8080 8080
0.0 0.0 0.0 0.0 0.0 0.0 0.0 0.0
0.0 0.0 0.0 0.0 0.0 0.0 0.0 0.0
0.0 0.0 0.0 0.0 0.0 0.0 0.0 0.0
0.0 0.0 0.0 0.0 0.0 0.0 0.0 0.0

tfl.pseudo_qconst8 i1 [1, 70, 1, 70] scale=0.024011672 zero_point=-128
00000000: 8080 8080 8080 8080 8080 8080 8080 8080
00000010: 8080 8080 8080 8080 8080 8080 8080 8080
00000020: 8080 8080 8080 8080 8080 8080 8080 8080
00000030: 8080 8080 8080 8080 8080 8080 8080 8080
00000040: 8080 8080 8080 8080 8080 8080 8080 8080
00000050: 8080 8080 8080 8080 8080 8080 8080 8080
00000060: 8080 8080 8080 8080 8080 8080 8080 8080
00000070: 8080 8080 8080 8080 8080 8080 8080 8080
00000080: 8080 8080 8080 8080 8080 8080 8080 8080
00000090: 8080 8080 8080 8080 8080 8080 8080 8080
000000a0: 8080 8080 8080 8080 8080 8080 8080 8080
000000b0: 8080 8080 8080 8080 8080 8080 8080 8080
000000c0: 8080 8080 8080 8080 8080 8080 8080 8080
000000d0: 8080 8080 8080 8080 8080 8080 8080 8080
000000e0: 8080 8080 8080 8080 8080 8080 8080 8080
000000f0: 8080 8080 8080 8080 8080 8080 8080 8080
0.0 0.0 0.0 0.0 0.0 0.0 0.0 0.0
0.0 0.0 0.0 0.0 0.0 0.0 0.0 0.0
0.0 0.0 0.0 0.0 0.0 0.0 0.0 0.0
0.0 0.0 0.0 0.0 0.0 0.0 0.0 0.0
0.0 0.0 0.0 0.0 0.0 0.0 0.0 0.0
0.0 0.0 0.0 0.0 0.0 0.0 0.0 0.0
0.0 0.0 0.0 0.0 0.0 0.0 0.0 0.0
0.0 0.0 0.0 0.0 0.0 0.0 0.0 0.0
0.0 0.0 0.0 0.0 0.0 0.0 0.0 0.0
0.0 0.0 0.0 0.0 0.0 0.0 0.0 0.0
0.0 0.0 0.0 0.0 0.0 0.0 0.0 0.0
0.0 0.0 0.0 0.0 0.0 0.0 0.0 0.0
0.0 0.0 0.0 0.0 0.0 0.0 0.0 0.0
0.0 0.0 0.0 0.0 0.0 0.0 0.0 0.0
0.0 0.0 0.0 0.0 0.0 0.0 0.0 0.0
0.0 0.0 0.0 0.0 0.0 0.0 0.0 0.0
0.0 0.0 0.0 0.0 0.0 0.0 0.0 0.0
0.0 0.0 0.0 0.0 0.0 0.0 0.0 0.0
0.0 0.0 0.0 0.0 0.0 0.0 0.0 0.0
0.0 0.0 0.0 0.0 0.0 0.0 0.0 0.0
0.0 0.0 0.0 0.0 0.0 0.0 0.0 0.0
0.0 0.0 0.0 0.0 0.0 0.0 0.0 0.0
0.0 0.0 0.0 0.0 0.0 0.0 0.0 0.0
0.0 0.0 0.0 0.0 0.0 0.0 0.0 0.0
0.0 0.0 0.0 0.0 0.0 0.0 0.0 0.0
0.0 0.0 0.0 0.0 0.0 0.0 0.0 0.0
0.0 0.0 0.0 0.0 0.0 0.0 0.0 0.0
0.0 0.0 0.0 0.0 0.0 0.0 0.0 0.0
0.0 0.0 0.0 0.0 0.0 0.0 0.0 0.0
0.0 0.0 0.0 0.0 0.0 0.0 0.0 0.0
0.0 0.0 0.0 0.0 0.0 0.0 0.0 0.0
0.0 0.0 0.0 0.0 0.0 0.0 0.0 0.0

tfl.pseudo_qconst9 i1 [1, 2, 1, 16] scale=0.015808862 zero_point=-128
00000000: 8080 8080 8080 8080 8080 8080 8080 8080
00000010: 8080 8080 8080 8080 8080 8080 8080 8080
0.0 0.0 0.0 0.0 0.0 0.0 0.0 0.0
0.0 0.0 0.0 0.0 0.0 0.0 0.0 0.0
0.0 0.0 0.0 0.0 0.0 0.0 0.0 0.0
0.0 0.0 0.0 0.0 0.0 0.0 0.0 0.0

tfl.pseudo_qconst10 i1 [1, 4, 1, 40] scale=0.101960786 zero_point=-128
00000000: 8080 8080 8080 8080 8080 8080 8080 8080
00000010: 8080 8080 8080 8080 8080 8080 8080 8080
00000020: 8080 8080 8080 8080 8080 8080 8080 8080
00000030: 8080 8080 8080 8080 8080 8080 8080 8080
00000040: 8080 8080 8080 8080 8080 8080 8080 8080
00000050: 8080 8080 8080 8080 8080 8080 8080 8080
00000060: 8080 8080 8080 8080 8080 8080 8080 8080
00000070: 8080 8080 8080 8080 8080 8080 8080 8080
00000080: 8080 8080 8080 8080 8080 8080 8080 8080
00000090: 8080 8080 8080 8080 8080 8080 8080 8080
0.0 0.0 0.0 0.0 0.0 0.0 0.0 0.0
0.0 0.0 0.0 0.0 0.0 0.0 0.0 0.0
0.0 0.0 0.0 0.0 0.0 0.0 0.0 0.0
0.0 0.0 0.0 0.0 0.0 0.0 0.0 0.0
0.0 0.0 0.0 0.0 0.0 0.0 0.0 0.0
0.0 0.0 0.0 0.0 0.0 0.0 0.0 0.0
0.0 0.0 0.0 0.0 0.0 0.0 0.0 0.0
0.0 0.0 0.0 0.0 0.0 0.0 0.0 0.0
0.0 0.0 0.0 0.0 0.0 0.0 0.0 0.0
0.0 0.0 0.0 0.0 0.0 0.0 0.0 0.0
0.0 0.0 0.0 0.0 0.0 0.0 0.0 0.0
0.0 0.0 0.0 0.0 0.0 0.0 0.0 0.0
0.0 0.0 0.0 0.0 0.0 0.0 0.0 0.0
0.0 0.0 0.0 0.0 0.0 0.0 0.0 0.0
0.0 0.0 0.0 0.0 0.0 0.0 0.0 0.0
0.0 0.0 0.0 0.0 0.0 0.0 0.0 0.0
0.0 0.0 0.0 0.0 0.0 0.0 0.0 0.0
0.0 0.0 0.0 0.0 0.0 0.0 0.0 0.0
0.0 0.0 0.0 0.0 0.0 0.0 0.0 0.0
0.0 0.0 0.0 0.0 0.0 0.0 0.0 0.0
